code/data/pre_w2v/char_embed_weight.npy (npy, 897728 bytes, 1 tensors)

array f4 [748, 300]
0	0xbedc1fa7	-0.429929
1	0x3e322707	0.173977
2	0xbe4bb55b	-0.198934
3	0xbe2975f3	-0.165489
4	0x3e2ca31e	0.168591
5	0x3e615012	0.220032
6	0x3e3d3ae7	0.184795
7	0xbcf1bac3	-0.029508
8	0x3e89b414	0.268952
9	0xbdbd4068	-0.092408
10	0xbf66187a	-0.898811
11	0xbd130058	-0.035889
12	0x3ebd7d5b	0.370097
13	0xbee3a94c	-0.444651
14	0x3f24370d	0.641465
15	0x3dd76e61	0.105191
16	0x3e6648c7	0.224887
17	0xbcc6e08f	-0.024277
18	0x3dec9214	0.115513
19	0xbe1a7610	-0.150841
20	0xbe8da8bd	-0.276678
21	0x3f08c921	0.534319
22	0x3d84f65a	0.064923
23	0xbe6ade22	-0.229363
24	0xbea7b092	-0.327519
25	0xbed2d6aa	-0.411794
26	0x3dc22707	0.094801
27	0x3f68aa43	0.908848
28	0xbe8338d6	-0.256293
29	0xbed55e6c	-0.416736
30	0x3f1e0957	0.61733
31	0x3f026363	0.509329
32	0x3d954a80	0.072896
33	0x3e5dc3bd	0.216567
34	0x3ede2e4d	0.433947
35	0xbdc1016d	-0.094241
36	0xbe3bbe44	-0.183343
37	0x3df5bff0	0.119995
38	0xbf0a66ed	-0.540633
39	0x3d0bae8a	0.034102
40	0xbeacbf0a	-0.337395
41	0x3efed0b3	0.497686
42	0xbf38038a	-0.718804
43	0xbc328d86	-0.010898
44	0xbeb3fd72	-0.351543
45	0xbdb86e3b	-0.090054
46	0x3efb48f5	0.490791
47	0xbe2d9903	-0.169529
48	0xbf01be1b	-0.506807
49	0xbe10afa3	-0.141295
50	0x3e22cbea	0.158981
51	0x3e26b93d	0.162816
52	0x3e2a1ad6	0.166118
53	0xbe81a826	-0.253236
54	0xbe14b3c4	-0.145217
55	0x3e74d4cc	0.239093
56	0xbea696c4	-0.325369
57	0xbe629069	-0.221254
58	0xbde896dd	-0.113569
59	0x3d9dc7ac	0.077041
60	0x3ea62bd0	0.324553
61	0x3ee0e326	0.439233
62	0xbd9d9cae	-0.076959
63	0x3d01c3f0	0.031681
64	0xbefd3112	-0.494515
65	0xbe2b007a	-0.166994
66	0x3e0e4c51	0.138963
67	0xbeccd489	-0.400059
68	0x3e01bbcf	0.126693
69	0x3e80d7bf	0.251646
70	0x3efbc3c6	0.491728
71	0xbe4446fa	-0.191677
72	0xbeee97d0	-0.466002
73	0xbe7c99af	-0.24668
74	0x3e170542	0.147481
75	0x3f0f2431	0.559146
76	0x3d8259e2	0.063648
77	0xbea3cbe6	-0.319915
78	0xbed12ab7	-0.408529
79	0xbea5d00f	-0.323853
80	0xb9f45176	-0.000466
81	0x3e307c42	0.172349
82	0x3d3be879	0.045876
83	0xbe42a2c2	-0.190074
84	0xbf067b70	-0.525321
85	0xbec7ef7c	-0.390499
86	0xbe4902de	-0.1963
87	0xbd94a44c	-0.072579
88	0xbe11fea8	-0.142573
89	0x3f3be293	0.733926
90	0xbd1e8e61	-0.03871
91	0xbce53eb4	-0.027984
92	0xbf0cbd55	-0.549764
93	0x3dba860e	0.091076
94	0xbdbd9989	-0.092578
95	0x3e7b545c	0.245439
96	0x3e17dc7b	0.148302
97	0x3e9917d7	0.29901
98	0x3e1cb3a2	0.153029
99	0xbcd8793e	-0.026425
100	0xbe22f1ed	-0.159126
101	0x3f5b268d	0.856057
102	0xbed15aaf	-0.408895
103	0x3ec0abd6	0.376311
104	0x3d761ed6	0.060088
105	0x3dcc2b52	0.099692
106	0x3e188c61	0.148973
107	0xbe6df762	-0.232389
108	0xbe644806	-0.222931
109	0xbf0ffe6d	-0.562476
110	0xbf54faad	-0.83195
111	0xbec60c17	-0.386811
112	0xbba92e62	-0.005163
113	0x3e1f4be8	0.155563
114	0xbeec8840	-0.461977
115	0xbe8128bf	-0.252264
116	0xbd76cacd	-0.060252
117	0xbeb62132	-0.355722
118	0x3dfcf2d0	0.12351
119	0xbe818e32	-0.253038
120	0xbeb27935	-0.348581
121	0xbe8eebb3	-0.279142
122	0x3eadccc9	0.339453
123	0x3ec2f7b1	0.380796
124	0x3e6b9baa	0.230086
125	0x3d6db50f	0.058034
126	0xbef1613d	-0.471445
127	0x3e84f894	0.259709
128	0xbdc877ee	-0.097885
129	0x3e474645	0.194604
130	0x3ee7bfa5	0.452634
131	0xbe0ac4f8	-0.135517
132	0x3ec18e32	0.378038
133	0x3e697785	0.227995
134	0x3ec9c7de	0.394103
135	0xbe1dfb50	-0.154279
136	0xbda39043	-0.079865
137	0xbe4301eb	-0.190437
138	0xbd7d6f97	-0.061874
139	0x3df62b6b	0.1202
140	0x3d01ce6c	0.031691
141	0x3d6f36f0	0.058402
142	0x3e3c8e69	0.184137
143	0x3e94475e	0.289607
144	0x3e6d013b	0.23145
145	0x3e501712	0.203213
146	0xbf0408d9	-0.51576
147	0xbe004af9	-0.125286
148	0x3cc2e558	0.023791
149	0x3e40ac3b	0.188157
150	0xbdeb4289	-0.114873
151	0x3dc7967d	0.097455
152	0xbe82be8c	-0.25536
153	0xbe435d25	-0.190785
154	0x3dd3f6c2	0.103498
155	0x3dbc5048	0.09195
156	0x3dfe96c4	0.124311
157	0x3d33bc90	0.043881
158	0xbe941db0	-0.289289
159	0x3dddfb0d	0.108389
160	0x3e1c55c9	0.152671
161	0xbe7ba733	-0.245755
162	0x3d9654d6	0.073404
163	0x3bd78c43	0.006578
164	0xbe0b1ee2	-0.13586
165	0xbe346562	-0.176168
166	0xbf0c6ef4	-0.548568
167	0x3eaa2ec3	0.332388
168	0xbc0344c3	-0.008012
169	0xbeea1be3	-0.457244
170	0x3cb22292	0.021745
171	0xbe332618	-0.17495
172	0x3e9c22ab	0.304952
173	0xbe83dc6a	-0.257541
174	0xbdbdb65f	-0.092633
175	0xbd525edd	-0.05136
176	0x3e2aad60	0.166677
177	0xbe7d6e05	-0.24749
178	0xbd5fa54c	-0.054601
179	0xbeba43bb	-0.363798
180	0x3e3d2d45	0.184743
181	0xbd8426bb	-0.064527
182	0x3f25be90	0.647439
183	0x3b92b3cc	0.004477
184	0xbf073e36	-0.528293
185	0x3e325354	0.174146
186	0x3d1715c6	0.036886
187	0x3ed8cfc0	0.42346
188	0xbe815a6c	-0.252643
189	0x3ec25376	0.379543
190	0x3ed95012	0.424439
191	0x3f00bff4	0.502929
192	0xbd9ecdd1	-0.077541
193	0xbe9569b1	-0.291822
194	0xbebe52df	-0.371726
195	0x3e8d0f62	0.275508
196	0xbe9c7dc3	-0.305647
197	0x3f2ea20a	0.68216
198	0xbea046a6	-0.313039
199	0xbf1cb5bb	-0.612148
200	0xbeb1bfbe	-0.347166
201	0x3e9ed8b2	0.310247
202	0xbd8fa616	-0.070141
203	0x3f0e8c37	0.556827
204	0x3f6b5621	0.919283
205	0x3e7e83e4	0.24855
206	0x3e14d0dd	0.145328
207	0xbe964303	-0.29348
208	0x3e84a44c	0.259066
209	0x3dcc9fb6	0.099914
210	0xbef2bffd	-0.474121
211	0xbe255c53	-0.161485
212	0xbddc72e2	-0.107641
213	0xbdeb8067	-0.114991
214	0x3ea7a4e8	0.32743
215	0xbefbf2f5	-0.492088
216	0x3ec33aef	0.381309
217	0x3c4e52df	0.012593
218	0xbe1613d3	-0.14656
219	0xbec88a69	-0.391681
220	0x3e217614	0.157677
221	0xbe70ef56	-0.235288
222	0x3eb91fd6	0.361571
223	0xbf481ce7	-0.781691
224	0xbf05bf48	-0.52245
225	0xbc91409a	-0.017731
226	0x3f272639	0.652927
227	0xbbe6106b	-0.007021
228	0x3edeb2d1	0.434958
229	0xbde86595	-0.113475
230	0x3ed311c7	0.412245
231	0x3ea11127	0.314584
232	0x3ee8c8ac	0.454656
233	0x3dc50bd8	0.096214
234	0xbea64bec	-0.324798
235	0x3f578fac	0.842036
236	0x3dd0de09	0.101986
237	0xbef58601	-0.479538
238	0x3e214984	0.157507
239	0x3ed7afa7	0.421262
240	0xbe455ac0	-0.192729
241	0xbe84c9a7	-0.259351
242	0x3e70be94	0.235102
243	0xbe1ccfaf	-0.153136
244	0x3ec19f1b	0.378167
245	0xbdcde97d	-0.100543
246	0xbd2deca2	-0.042462
247	0xbee31013	-0.443482
248	0x3ed6325d	0.418353
249	0xbf3ecca3	-0.74531
250	0x3ed191de	0.409316
251	0xbd1a511a	-0.037675
252	0xbe749c2c	-0.238877
253	0x3e9b98a6	0.303899
254	0x3f5acd08	0.854691
255	0xbdd3176a	-0.103072
